…
        (mlp): LlamaMLP(
          (gate_proj): Linear4bit(in_features=4096, out_features=11008, bias=False)
          (up_proj): Linear4bit(in_features=4096, out_features=11008, bias=False)
          (down_proj): Linear4bit(in_features=11008, out_features=4096, bias=False)
          (act_fn): SiLUActivation()
        )
        (input_layernorm): LlamaRMSNorm()
        (post_attention_layernorm): LlamaRMSNorm()
      )
    )
    (norm): LlamaRMSNorm()
    (image_tower): LanguageBindImageTower(
      (image_tower): CLIPVisionTransformer(
        (embeddings): CLIPVisionEmbeddings(
          (patch_embedding): Conv2d(3, 1024, kernel_size=(14, 14), stride=(14, 14), bias=False)
          (position_embedding): Embedding(257, 1024)
        )
        (patch_dropout): PatchDropout()
        (pre_layrnorm): LayerNorm((1024,), eps=1e-05, elementwise_affine=True)
        (encoder): CLIPEncoder(
          (layers): ModuleList(
            (0-23): 24 x CLIPEncoderLayer(
              (self_attn): CLIPAttention(
                (k_proj): Linear(in_features=1024, out_features=1024, bias=True)
                (v_proj): Linear(in_features=1024, out_features=1024, bias=True)
                (q_proj): Linear(in_features=1024, out_features=1024, bias=True)
                (out_proj): Linear(in_features=1024, out_features=1024, bias=True)
              )
              (layer_norm1): LayerNorm((1024,), eps=1e-05, elementwise_affine=True)
              (mlp): CLIPMLP(
                (activation_fn): GELUActivation()
                (fc1): Linear(in_features=1024, out_features=4096, bias=True)
                (fc2): Linear(in_features=4096, out_features=1024, bias=True)
              )
              (layer_norm2): LayerNorm((1024,), eps=1e-05, elementwise_affine=True)
            )
          )
        )
        (post_layernorm): LayerNorm((1024,), eps=1e-05, elementwise_affine=True)
      )
    )
    (mm_projector): Sequential(
      (0): Linear4bit(in_features=1024, out_features=4096, bias=True)
      (1): GELU(approximate='none')
      (2): Linear4bit(in_features=4096, out_features=4096, bias=True)
    )
    (video_tower): LanguageBindVideoTower(
      (video_tower): CLIPVisionTransformer(
        (embeddings): CLIPVisionEmbeddings(
          (patch_embedding): Conv2d(3, 1024, kernel_size=(14, 14), stride=(14, 14), bias=False)
          (position_embedding): Embedding(257, 1024)
        )
        (patch_dropout): PatchDropout()
        (pre_layrnorm): LayerNorm((1024,), eps=1e-05, elementwise_affine=True)
        (encoder): CLIPEncoder(
          (layers): ModuleList(
            (0-23): 24 x CLIPEncoderLayer(
              (self_attn): CLIPAttention(
                (k_proj): Linear(in_features=1024, out_features=1024, bias=True)
                (v_proj): Linear(in_features=1024, out_features=1024, bias=True)
                (q_proj): Linear(in_features=1024, out_features=1024, bias=True)
                (out_proj): Linear(in_features=1024, out_features=1024, bias=True)
              )
              (layer_norm1): LayerNorm((1024,), eps=1e-05, elementwise_affine=True)
              (mlp): CLIPMLP(
                (activation_fn): GELUActivation()
                (fc1): Linear(in_features=1024, out_features=4096, bias=True)
                (fc2): Linear(in_features=4096, out_features=1024, bias=True)
              )
              (layer_norm2): LayerNorm((1024,), eps=1e-05, elementwise_affine=True)
              (temporal_attn): CLIPAttention(
                (k_proj): Linear(in_features=1024, out_features=1024, bias=True)
                (v_proj): Linear(in_features=1024, out_features=1024, bias=True)
                (q_proj): Linear(in_features=1024, out_features=1024, bias=True)
                (out_proj): Linear(in_features=1024, out_features=1024, bias=True)
              )
              (temporal_layer_norm1): LayerNorm((1024,), eps=1e-05, elementwise_affine=True)
            )
          )
        )
        (post_layernorm): LayerNorm((1024,), eps=1e-05, elementwise_affine=True)
      )
    )
  )
  (lm_head): Linear(in_features=4096, out_features=32000, bias=False)
)LlavaLlamaForCausalLM(
  (model): LlavaLlamaModel(
    (embed_tokens): Embedding(32000, 4096, padding_idx=0)
    (layers): ModuleList(
      (0-31): 32 x LlamaDecoderLayer(
        (self_attn): LlamaAttention(
          (q_proj): Linear4bit(in_features=4096, out_features=4096, bias=False)
          (k_proj): Linear4bit(in_features=4096, out_features=4096, bias=False)
          (v_proj): Linear4bit(in_features=4096, out_features=4096, bias=False)
          (o_proj): Linear4bit(in_features=4096, out_features=4096, bias=False)
…
        (mlp): LlamaMLP(
          (gate_proj): Linear4bit(in_features=4096, out_features=11008, bias=False)
          (up_proj): Linear4bit(in_features=4096, out_features=11008, bias=False)
          (down_proj): Linear4bit(in_features=11008, out_features=4096, bias=False)
          (act_fn): SiLUActivation()
        )
        (input_layernorm): LlamaRMSNorm()
        (post_attention_layernorm): LlamaRMSNorm()
      )
    )
    (norm): LlamaRMSNorm()
    (image_tower): LanguageBindImageTower(
      (image_tower): CLIPVisionTransformer(
        (embeddings): CLIPVisionEmbeddings(
          (patch_embedding): Conv2d(3, 1024, kernel_size=(14, 14), stride=(14, 14), bias=False)
          (position_embedding): Embedding(257, 1024)
        )
        (patch_dropout): PatchDropout()
        (pre_layrnorm): LayerNorm((1024,), eps=1e-05, elementwise_affine=True)
        (encoder): CLIPEncoder(
          (layers): ModuleList(
            (0-23): 24 x CLIPEncoderLayer(
              (self_attn): CLIPAttention(
                (k_proj): Linear(in_features=1024, out_features=1024, bias=True)
                (v_proj): Linear(in_features=1024, out_features=1024, bias=True)
                (q_proj): Linear(in_features=1024, out_features=1024, bias=True)
                (out_proj): Linear(in_features=1024, out_features=1024, bias=True)
              )
              (layer_norm1): LayerNorm((1024,), eps=1e-05, elementwise_affine=True)
              (mlp): CLIPMLP(
                (activation_fn): GELUActivation()
                (fc1): Linear(in_features=1024, out_features=4096, bias=True)
                (fc2): Linear(in_features=4096, out_features=1024, bias=True)
              )
              (layer_norm2): LayerNorm((1024,), eps=1e-05, elementwise_affine=True)
            )
          )
        )
        (post_layernorm): LayerNorm((1024,), eps=1e-05, elementwise_affine=True)
      )
    )
    (mm_projector): Sequential(
      (0): Linear4bit(in_features=1024, out_features=4096, bias=True)
      (1): GELU(approximate='none')
      (2): Linear4bit(in_features=4096, out_features=4096, bias=True)
    )
    (video_tower): LanguageBindVideoTower(
      (video_tower): CLIPVisionTransformer(
        (embeddings): CLIPVisionEmbeddings(
          (patch_embedding): Conv2d(3, 1024, kernel_size=(14, 14), stride=(14, 14), bias=False)
          (position_embedding): Embedding(257, 1024)
        )
        (patch_dropout): PatchDropout()
        (pre_layrnorm): LayerNorm((1024,), eps=1e-05, elementwise_affine=True)
        (encoder): CLIPEncoder(
          (layers): ModuleList(
            (0-23): 24 x CLIPEncoderLayer(
              (self_attn): CLIPAttention(
                (k_proj): Linear(in_features=1024, out_features=1024, bias=True)
                (v_proj): Linear(in_features=1024, out_features=1024, bias=True)
                (q_proj): Linear(in_features=1024, out_features=1024, bias=True)
                (out_proj): Linear(in_features=1024, out_features=1024, bias=True)
              )
              (layer_norm1): LayerNorm((1024,), eps=1e-05, elementwise_affine=True)
              (mlp): CLIPMLP(
                (activation_fn): GELUActivation()
                (fc1): Linear(in_features=1024, out_features=4096, bias=True)
                (fc2): Linear(in_features=4096, out_features=1024, bias=True)
              )
              (layer_norm2): LayerNorm((1024,), eps=1e-05, elementwise_affine=True)
              (temporal_attn): CLIPAttention(
                (k_proj): Linear(in_features=1024, out_features=1024, bias=True)
                (v_proj): Linear(in_features=1024, out_features=1024, bias=True)
                (q_proj): Linear(in_features=1024, out_features=1024, bias=True)
                (out_proj): Linear(in_features=1024, out_features=1024, bias=True)
              )
              (temporal_layer_norm1): LayerNorm((1024,), eps=1e-05, elementwise_affine=True)
            )
          )
        )
        (post_layernorm): LayerNorm((1024,), eps=1e-05, elementwise_affine=True)
      )
    )
  )
  (lm_head): Linear(in_features=4096, out_features=32000, bias=False)
)